…
flow/core/common_runtime/gpu/gpu_device.cc:1525] Created device /job:localhost/replica:0/task:0/device:GPU:0 with 3389 MB memory:  -> device: 0, name: NVIDIA GeForce GTX 950M, pci bus id: 0000:01:00.0, compute capability: 5.0Model: "model"_________________________________________________________________ Layer (type)                Output Shape              Param #   ================================================================= input_1 (InputLayer)        [(None, 28, 28, 1)]       0                                                                           conv2d (Conv2D)             (None, 26, 26, 32)        320                                                                         max_pooling2d (MaxPooling2D  (None, 13, 13, 32)       0          )                                                                                                                                 conv2d_1 (Conv2D)           (None, 11, 11, 64)        18496                                                                       max_pooling2d_1 (MaxPooling  (None, 5, 5, 64)         0          2D)                                                                                                                               flatten (Flatten)           (None, 1600)              0                                                                           dropout (Dropout)           (None, 1600)              0                                                                           dense (Dense)               (None, 10)                16010                                                                      =================================================================Total params: 34,826Trainable params: 34,826Non-trainable params: 0_________________________________________________________________DEBUG:rea.model.model:None2022-03-03 10:50:48.744989: W tensorflow/core/framework/cpu_allocator_impl.cc:82] Allocation of 261
…
